checkpoint.pth (torch_old, 28451 bytes, 6 tensors)

fc1.weight f4 [64, 37]
00000000: 762d b93b 3c97 cb3c e1d0 d8bc 1101 10bd
00000010: 48d2 adb9 bc4d 503e 8eb7 1ebd d5f0 793a
00000020: 6e38 34be dfa8 fbbd fb2b febd e517 7abd
00000030: ff04 703c bc1b a0bd 807d b3bd 58f6 9e3d
00000040: e0b1 95bd 0057 043e ef3c cdbd 84a6 923d
00000050: 6266 50bd d869 1a3d 3b6e 0d3e a16c 093e
00000060: 760c da3d fb7c 28bd a983 fd3d d7a6 533d
00000070: 6414 47bd e683 083e 8b79 b8bd 7c82 ae3d
00000080: 040f ffbd 509e f0bc ae3f c8be 301a 3ebe
00000090: c855 5ebd eb41 fa3d 0d6c 2c3c f78e 943d
000000a0: aa66 11be 33aa dcbd c976 df3c 0c44 88be
000000b0: 2cba 0dbe 5f44 0cbe f115 33be 4073 0bbb
000000c0: a94e de3d b68a 26be c90b 933d 010c febc
000000d0: 68bb 3f3e 8b92 d5bd cce3 02be 4c63 80be
000000e0: 52a8 5abd 0a09 4dbe 323e a8bd 71eb febd
000000f0: 0c9d 29bd 6f75 c93b 6849 13be f78c fe39
00000100: 05f7 8b3d 646c 993c 4293 8dbd e5b7 043d
00000110: 1729 48bd af3e 343e 1e59 6dbe 8903 9abd
00000120: 5268 6cbd 8b2b eb3c d95e 6a3e 0dd9 013d
00000130: aed9 1f3e ef82 443d 3d86 92be 60ca 46bf
00000140: 39f8 943d 48c7 8d3e 6e47 ac3e b38a 1bbf
00000150: 1d47 cc3d 7573 493d 5634 713d 0c47 6f3c
00000160: 1b5b 14be 5ac3 bdbd 8577 7a3e 2cb9 203e
00000170: 9b88 283d 9d07 16be 9209 d6bd 0ce9 d03c
00000180: 6e45 c53d e1ed d33c faa0 64bc 4ba7 14be
00000190: 6d40 243e 8df6 6f3e cc5f 0cbb a436 653d
000001a0: bb82 95be 2d85 803d d9dc 933d 0931 d2bc
000001b0: ac55 c93c 7050 3a3c c3ae 4c3c 390a c63d
000001c0: 7f9a fe3d 91d5 0e3e 8619 c53c f4a3 2ebe
000001d0: 8892 34bd 4830 5ebd f3c4 9a3d 59f7 553d
000001e0: 956d e43d ad29 a83e 9a06 17bf 4211 92be
000001f0: b62e 37bf 3818 debf 2b10 8bbd 564d 41bd
00000200: b01f 8cbd a8b9 c9bd 76e7 6abd 86ff ddbd
00000210: c815 c53c 13c2 c23d 6693 273e 3e5a 523e
00000220: 804e c33c a5db 943c d93e 8a3d 8d81 1c3e
00000230: d6ee 263e d176 883d 666e fe3d 5738 8e3d
00000240: 1e3c ab3d c026 95bd 68d2 a53b d25c 56bb
00000250: 49cb 45be b9c8 e2bd c524 8dbd 0c19 49be
00000260: a542 4cbd dd7d 8e3e 9b0c 64be 76db 2cbe
00000270: b832 57be 72ed 98bf 67e5 96bd 99f1 12bd
00000280: 7510 da3c 1ad0 34be ec39 5dbd be5b 93bd
00000290: 1a1f f5bd 68b3 1cbc 94a6 dcbb 6437 083d
000002a0: 8874 1ebd 9de9 e83d 826e ffbc 7dba d1bd
000002b0: 0afe 123e 81d5 c23d 11a9 acbc 9d80 f93c
000002c0: 9ce9 30bd 5f5c 88bb 3856 1e3e 9818 14be
000002d0: 6bdb 8bbc 5a00 673c 5703 6c3e a887 813c
000002e0: beda 483b 6e26 c93d 8d88 27bd d408 0b3d
000002f0: 9d8e ac3d 61dc f83d e293 8d3e c459 afbc
00000300: b952 27be 495b e9bd 57e5 b2bf 50eb cbbd
00000310: 146e 0bbd c142 cd3c 30c0 873d 53ff 753c
00000320: 1e89 dcbc 9998 5c3e 512b aabd 691e 4b3d
00000330: 49ca e2bc 22a9 d33d 595b 963d 4f24 3d3e
00000340: 001c 903d fe1c ea3d 3009 33bb 2c7f 063e
00000350: 0279 f83c 3f22 d9bc 45a0 35bd 3af3 5b3d
00000360: e2a0 353d a206 d9bd 3cf2 0c3e b83d 1cbe
00000370: fec1 b039 70a3 293c feae 92be 6f27 ac3d
00000380: 8817 daba aa52 64bc 2355 43be ae8b 06be
00000390: 63dc 35bd 3bdd 2abb 9a3e 9fbd 9d50 5a3e
000003a0: c90c f23d 7d3b 213e 7a06 3dbe 8b26 d1bd
000003b0: 0b3c 213e d1b9 c9be 879e 46bd 9f71 8c3d
000003c0: d3eb 293e b5c8 37be ac48 aebe 94d7 40bd
000003d0: 80ee 1c3d 49e6 783e 63b6 193d 776d 7abe
000003e0: ec87 f63b c9fd 05bb d24e 10be 7fa0 ba3d
000003f0: 50ce f53d c0d3 4fbe c4b4 aabd f56e adbc
0.0056511713 0.024852388 -0.026466789 -0.035157267 -0.00033153803 0.20342153 -0.03874927 0.0009534483
-0.17599651 -0.12288069 -0.12410732 -0.061057944 0.014649629 -0.0781779 -0.087641716 0.0776183
-0.073093176 0.12923813 -0.10021388 0.071606666 -0.05087889 0.037698597 0.13811581 0.13420345
0.10646908 -0.041134816 0.12378628 0.051672783 -0.04860343 0.13331565 -0.090075575 0.08520982
-0.12454036 -0.029372364 -0.39111084 -0.18564677 -0.054281026 0.12219604 0.010523808 0.07253831
-0.1419932 -0.107746504 0.02727832 -0.26614416 -0.1384055 -0.13697957 -0.17488839 -0.002127841
0.10854847 -0.16263852 0.07179982 -0.031011583 0.18723834 -0.104283415 -0.1278221 -0.25075758
-0.05338318 -0.2002298 -0.08214988 -0.12447251 -0.041409537 0.0061480324 -0.14383471 0.00048551682
0.068342246 0.018728442 -0.06912853 0.032401938 -0.04886731 0.17602037 -0.23178527 -0.075202055
-0.057716675 0.028707286 0.22887744 0.031701136 0.15610382 0.04797643 -0.2861804 -0.7765255
0.07273907 0.27691102 0.33648247 -0.60758513 0.09974501 0.049182374 0.058887802 0.014604341
-0.14487879 -0.09265776 0.24459656 0.15695637 0.041145902 -0.14651342 -0.10451044 0.02550175
0.09632383 0.025870265 -0.013954395 -0.14516942 0.16040201 0.23433895 -0.0021419404 0.055960312
-0.29201302 0.06275401 0.07219858 -0.025658147 0.024576984 0.011371717 0.012492838 0.096699186
0.124318115 0.13948657 0.024060022 -0.1705473 -0.044085056 -0.054245263 0.07557096 0.052237842
0.111537136 0.32844296 -0.5899445 -0.28528792 -0.7155565 -1.7351141 -0.06790193 -0.047192894
-0.068419814 -0.09849864 -0.057349645 -0.10839753 0.024058238 0.09509673 0.16364822 0.20542237
0.023841143 0.01817114 0.067502685 0.15283795 0.16302046 0.066632874 0.124234006 0.0694434
0.08361076 -0.072827816 0.005060483 -0.0032709134 -0.19315828 -0.11073441 -0.06891779 -0.19638461
-0.049868245 0.278304 -0.22270434 -0.16880593 -0.21015441 -1.1947463 -0.07367974 -0.035874937
0.026619175 -0.1765751 -0.054010317 -0.07195233 -0.11968823 -0.009564258 -0.006733725 0.03325595
-0.03868535 0.11372683 -0.031180624 -0.10240648 0.1435472 0.09513379 -0.02107671 0.030456835
-0.043191537 -0.004161402 0.15462577 -0.14462507 -0.0170724 0.014099205 0.23048149 0.015811756
0.0030647959 0.09821783 -0.04090171 0.033943966 0.08425639 0.12151409 0.27651888 -0.021405108
-0.1634015 -0.113943644 -1.3976239 -0.09956992 -0.034040526 0.025056245 0.06628454 0.015014487
-0.026920851 0.21542586 -0.08309043 0.04958955 -0.027684348 0.10334994 0.07341642 0.18470882
0.070365906 0.11431311 -0.0027318709 0.1313445 0.030331139 -0.026505588 -0.044342298 0.053698756
0.044342883 -0.10596968 0.1376428 -0.15257919 0.0003371387 0.010353908 -0.28649133 0.08405959
-0.0016639093 -0.013935724 -0.19075446 -0.13139221 -0.04439963 -0.0026071805 -0.07775612 0.21319814
0.11818845 0.15745349 -0.18459502 -0.102124296 0.15745561 -0.3939958 -0.048491027 0.06857609
0.16593866 -0.17947657 -0.3403982 -0.04708059 0.03831339 0.24306597 0.037527453 -0.2445582
0.0075235274 -0.0020445457 -0.14092568 0.091126435 0.120022416 -0.2029562 -0.083352596 -0.021171072

fc1.bias f4 [64]
00000000: d823 c33d 84ea a5bd 90b3 8abc f915 b13a
00000010: 39c3 3f3e 0767 b73c 0b05 ddbd 45b6 723d
00000020: 6dbc 403d 2976 3bbe ff0e 1d3e 2970 523e
00000030: 5a44 143e 801c 7e3d 0ceb 88bc aed1 a1bd
00000040: 0baa ef3b 9051 b03b 50cd 263c a86a 39be
00000050: e0d4 e3bd 5334 bd3d 1bc2 a93c 08f4 84bd
00000060: 9081 c7bd 7592 f23d 2a10 0ebc 5499 54be
00000070: 77fb 4c3e 49cf d33d 096d dfbc 8eed ecbd
00000080: 3e4a 163e 8aa5 bc3c 6a8e 1fbe 89bf 723d
00000090: 5c3f 15bd 7c61 4f3c c46c 8fbc 9daa 0bbe
000000a0: 32c2 e8bd 91c7 cabd 32e4 0ebe 0ece 513e
000000b0: 717a 683d 8f1d ffbd 4a89 64bd 4b24 efbd
000000c0: 711f d6bd 5dfd e33d 0806 28be 41d0 8f3d
000000d0: fd39 d1bc 8783 35bd fb2e 2fbe 1863 82bd
000000e0: 2d4b 1a3e 42f6 cebd cf43 76bd a5f3 8bbd
000000f0: 55fc b73c c9ad ae3d 3500 123d 788e 383d
0.09528321 -0.08101371 -0.016931325 0.0013510577 0.18726815 0.022387994 -0.107919775 0.059255857
0.047054697 -0.18306793 0.15337752 0.20550598 0.14479199 0.0620389 -0.016713642 -0.07901321
0.007313972 0.0053808168 0.010180786 -0.18107092 -0.11124587 0.09238496 0.02072244 -0.06491858
-0.09741509 0.11844341 -0.008670846 -0.20761615 0.20017801 0.10342271 -0.027273672 -0.115687475
0.14676759 0.023028154 -0.1558167 0.059264693 -0.036437377 0.012657519 -0.017507918 -0.13639303
-0.11365165 -0.099013455 -0.13954237 0.2048876 0.056757394 -0.1245681 -0.05579499 -0.11676844
-0.10455216 0.111323096 -0.1640855 0.07022143 -0.025540346 -0.044314887 -0.17107765 -0.06366557
0.1506774 -0.10105564 -0.06012326 -0.06833581 0.022459188 0.08529241 0.03564473 0.045057744

fc2.weight f4 [64, 64]
00000000: 52bf 19be 83a8 85bd 6cd1 34bc e0f4 a73e
00000010: 0e5a 5d3e 5243 ffbe bce7 85be a0c1 1c3e
00000020: 8b60 df3d bfee cabd b0af da3d aa3b 23be
00000030: 563e c7be 6a69 733e 093e c4bd 6468 c3be
00000040: 2821 7d3d 9978 dbbe 3fef c9be 229f 93be
00000050: 9b4a b2be a1c5 f1be 2e65 203e e90f 03be
00000060: 6965 0dbf cf0f e7bd 1c3f 00be 2333 4d3e
00000070: e273 cc3d a841 33be 6254 1b3e 07b0 ebbe
00000080: cd88 28bd c2e5 483d 77f6 28bf b0d9 70bd
00000090: 90d6 87bd 4395 5a3e 61fb bebe f679 47be
000000a0: 361d ddbe fc7d 96bd b91d b9bc 67be 2abe
000000b0: 7428 0c3e 8a94 b3bc a22b 2abe 0289 84be
000000c0: 9414 16be a94c 153e e878 62be fb53 b0bc
000000d0: 8db5 57bf 9cdb 123d 7a77 1fbf 2d07 02bf
000000e0: 7dca 2fbe 466c e9be 2787 15be 6ef0 79be
000000f0: c57f bbbd 1bfa 513e eaf5 c2be 97dd 9e3b
00000100: bad7 b53d ca04 303d aee9 0abd ef9c 573d
00000110: 246d ad3d 560b 1c3e 0eb9 2bbe d132 2a3d
00000120: 9551 1bbd b5ce c9bd 7ee7 5fbc b11e 943e
00000130: cea1 c3bd 11dc 7e3c 7af5 f5bd 0f28 01bc
00000140: 873e b5bc 3b6c bb3d 845a 783d 31e7 553d
00000150: 7ad9 f33d bc98 7abe 4d23 a43d af4e 22be
00000160: 4bbe 2ebb 219c 53bd 53db a639 e908 3fbe
00000170: f4e9 273e 6d33 66bd a924 f83d 7caf 01be
00000180: e2cd 3abe bcfb 693e b35b be3d 10a4 4e3d
00000190: 65c8 b2bd 038b 43be 1b41 1f3e 102c 3cbe
000001a0: 731f ae3c 0a98 5dbd 63e6 3cbd 7e77 1ebe
000001b0: 401c 0cbd 01c7 8cbe 473e 41be f2b3 d0bd
000001c0: 38f2 94be 4499 7bbe 297d 45bb bbb5 ff3d
000001d0: 43e3 d8bd ff30 fabd c58f 07be fce8 f73c
000001e0: 0234 253d 6e2f a4bd 13b9 6c3e 67dd 8f3d
000001f0: 6a7a 7ebe e1d2 a0bc 32c4 e03d 713d 3fbe
00000200: f1c7 a0be 0e3c 00be 101e 143e e537 893e
00000210: 9f30 78bc 2d93 c9bd e329 18bd 93e6 1f3d
00000220: d985 bbbd d58b 73be 86f4 1c3e a451 58be
00000230: 987c fe3b 2d62 ff3d 6497 313e 1754 b8bd
00000240: cc38 a1bd d9dd 6fbe e25e e33d bd36 e1be
00000250: a16b 22be 611c 81bd f0fd 08be c7c4 74be
00000260: 0a94 e5be 9280 183e 3a89 1dbd 29f1 eb3d
00000270: 67ea 86bd d227 4e37 1af8 4b3e fc88 13bf
00000280: 87b0 18be 503b b73d 1759 88be 409e 893d
00000290: 6db1 fa3d 7349 41be ef50 223e 9ae4 123e
000002a0: 0120 3cbe 73df f3bd 0bb6 383e d195 5dbe
000002b0: cfc2 a63d 0717 7abe e141 33be 84df 24be
000002c0: dfb5 6dbe eabf 51bd b0e3 09be 99a4 84bd
000002d0: 60e7 47be 27c5 263e d326 bfbe d922 fdbe
000002e0: 96fb 943d 751b 60be def0 3d3e 6dcd ff3c
000002f0: 8828 b5bd d407 9abd b3a6 8dbe 8e62 b2bc
00000300: ad05 ff3d 5a1c 37be 8ef2 743c e969 843e
00000310: fd54 5b3c ef49 47be 908a 74bc a2b2 1c3d
00000320: 7ab8 b7bd a358 293c 4faf a0ba c6bd 21be
00000330: 2f82 c63d 3155 083e 025f 713c 2732 573d
00000340: 77dc 0cbd 7f7b 0ebd 2bb3 2a3d 8748 833d
00000350: 81cc 773d d765 aebd f348 24bd 0d03 a0be
00000360: f96e c3bd 1c13 5ebe 7c29 793e cbb4 2c3e
00000370: f56b 533e ddbf 24be 419e dc3d 314c 713b
00000380: ef5f 66bd d9c5 e2bd 0392 833d c605 753e
00000390: 1172 d9bd a02d 8fbd 9c91 d73d 0160 92bd
000003a0: ea83 353d 5ba2 df3e 8337 223e 46cf dbbd
000003b0: c586 81bd 20c1 303e ccc7 583e 3339 693d
000003c0: 379b d5bc e3ac 9d3d ae9d 45be ff9a 763e
000003d0: e2e4 393e 6ffb 24be 8472 f13c 23ff f23d
000003e0: 3c66 74bd 8264 83bd dc46 e8bd 1a7e d83d
000003f0: 72e3 a5bc af00 113c c5cc 97be 1189 23bd
-0.15014389 -0.06526282 -0.011036258 0.32804012 0.21616384 -0.4985605 -0.26153362 0.15308237
0.10907086 -0.099088185 0.10678041 -0.15940729 -0.38914746 0.23770681 -0.09582145 -0.3816558
0.0617992 -0.42865446 -0.39440343 -0.28832346 -0.34822544 -0.4722109 0.15663597 -0.12799038
-0.55232865 -0.11282312 -0.12524074 0.20039038 0.099830404 -0.17505515 0.15168908 -0.46032736
-0.04114609 0.04904724 -0.66001076 -0.058801353 -0.066327214 0.21346001 -0.37301162 -0.19480118
-0.4318635 -0.07348248 -0.02259718 -0.16674195 0.13687307 -0.021921415 -0.16618207 -0.2588578
-0.14656287 0.14580025 -0.22116435 -0.02152442 -0.842614 0.035853967 -0.6229168 -0.507922
-0.17167087 -0.4559042 -0.14602338 -0.24408123 -0.091552295 0.20505564 -0.38078243 0.004848193
0.08879037 0.042973317 -0.03391426 0.052639898 0.084680825 0.152387 -0.16769812 0.04155237
-0.0379196 -0.09853879 -0.013666032 0.28929666 -0.09552346 0.015555398 -0.120097116 -0.007883086
-0.022124542 0.09151503 0.060633197 0.052222434 0.11906715 -0.24472326 0.080145456 -0.15850328
-0.0026663716 -0.051662568 0.00031825397 -0.18655743 0.1639784 -0.056201387 0.12116367 -0.12664598
-0.182426 0.22849935 0.09294834 0.05044943 -0.087296285 -0.19095998 0.1555218 -0.18376184
0.02125523 -0.054100074 -0.04611815 -0.1547527 -0.03420663 -0.27495578 -0.18871413 -0.10190572
-0.29091048 -0.24570185 -0.0030134416 0.12485834 -0.10590222 -0.122163765 -0.13238437 0.030262463
0.0403328 -0.08016859 0.23117475 0.07024651 -0.24851385 -0.019631805 0.10974921 -0.18675782
-0.31402543 -0.12522909 0.14464593 0.26800457 -0.015148311 -0.09842525 -0.03714932 0.039038252
-0.09156389 -0.2378381 0.15327653 -0.21124893 0.0077663176 0.124698974 0.17342907 -0.09000414
-0.07872161 -0.23424472 0.11102082 -0.43987074 -0.1586137 -0.06304241 -0.1337812 -0.2390319
-0.44839507 0.14892796 -0.038460948 0.11520607 -0.065876774 1.2287828e-05 0.19918862 -0.57630897
-0.1491109 0.0894686 -0.2663047 0.06719637 0.122408725 -0.18875675 0.15851186 0.14345017
-0.18371584 -0.11907854 0.18038194 -0.21639182 0.081426255 -0.24422847 -0.175056 -0.1610089
-0.2321391 -0.051208414 -0.13465762 -0.06476707 -0.19521856 0.16286145 -0.37334308 -0.4944065
0.07274549 -0.21885474 0.18548915 0.031225884 -0.08845621 -0.07521024 -0.27666244 -0.02177551
0.124522544 -0.17881909 0.014950408 0.25862053 0.013386962 -0.19461797 -0.014925614 0.038256295
-0.08970733 0.010336074 -0.0012259277 -0.15795049 0.09692799 0.13313748 0.014732124 0.052538063
-0.03438994 -0.034785744 0.041674774 0.06410318 0.060497764 -0.08515518 -0.040108632 -0.31252328
-0.09542651 -0.21686977 0.24332231 0.16865842 0.20646651 -0.16088815 0.10772372 0.0036819095
-0.056243833 -0.11072893 0.06424334 0.23927984 -0.106174596 -0.06991124 0.1052582 -0.071472175
0.044315256 0.43678555 0.15841489 -0.10732894 -0.063245334 0.17261171 0.21169966 0.056939315
-0.026074989 0.07698991 -0.19298431 0.24082564 0.18153718 -0.1611154 0.02947355 0.1186507
-0.05966781 -0.06415655 -0.1134164 0.10570927 -0.020250056 0.008850261 -0.29648414 -0.03992564

fc2.bias f4 [64]
00000000: b597 513c c2cf 15b9 4ff3 af3d 52f5 843d
00000010: 1f65 db3d bfea 29be 5495 85bd 21b2 aabc
00000020: 24ca d73d 9cba af3e 9910 48bd 51ef 5b3e
00000030: c894 8f3e 2944 f53b d642 f9bc 22ea e03c
00000040: 1ea7 e0bc 91f4 6f3d 1616 2bbd f6af 703e
00000050: f8ac 373e b63f b73e 022c 26be 0ab6 a5bd
00000060: 4fed e3bd 1298 a1bd 4576 2f3d 63d5 863d
00000070: c6f5 2d3d f012 043e 2632 103d 70f5 dfbd
00000080: c57a ea3b 59f2 6f3d 48a6 d83d b0fc d53c
00000090: 8cc9 cfbd 3c8b 13be 18f0 a83e f14a dc3c
000000a0: 58f4 1bbe 9a65 d83e bfa6 983e b41f 0bbb
000000b0: e0d5 eb3d 8d03 34be 5fc7 693e 91a9 2dbe
000000c0: 91b1 a23c 68aa cbbd 3fd0 1f3d 38fe 9c3e
000000d0: dc17 3ebd ef9a 02be ed13 343e 5478 e43c
000000e0: f25f 59be f879 2dbe df53 1abb 5c01 57bd
000000f0: b438 e43c 5b9f 6d3e c8ed b93d bc7f 27be
0.012792517 -0.00014287143 0.08591329 0.06492104 0.10712647 -0.16593455 -0.06522623 -0.020836892
0.10536602 0.3432206 -0.048843954 0.2147801 0.280432 0.007484932 -0.030427378 0.027455393
-0.027423438 0.058582846 -0.04176911 0.23504624 0.17937076 0.35790795 -0.16227725 -0.08091362
-0.111292474 -0.07890333 0.0428374 0.06583669 0.042470716 0.12897849 0.035204075 -0.10935485
0.0071557485 0.05858073 0.10578591 0.026121467 -0.10145864 -0.14408582 0.32995677 0.026891204
-0.15229928 0.42265016 0.29814717 -0.0021228613 0.11515403 -0.1757948 0.2282996 -0.16959216
0.01986006 -0.09944612 0.03901696 0.30662704 -0.046409473 -0.12754415 0.17585726 0.027889408
-0.21228006 -0.16941059 -0.0023548526 -0.05249153 0.02785907 0.2320532 0.09078556 -0.1635732

fc3.weight f4 [4, 64]
00000000: 232f cfbe e5f7 0c3e 7478 dd3e 95ea adbd
00000010: c4ab 173e 797b e83e 5d1a b03e e894 19be
00000020: 1100 363e 3b66 e83d 118f d8be 3b07 9a3e
00000030: a771 c03d 2bd9 a33e 06ce 7abe 69cd b0bd
00000040: 3d98 ccbc e99e 833e 20ff 6e3c 6ecb 403e
00000050: 3505 d13d 8172 993e 69cd 00bd 9766 25be
00000060: a89e 5cbe 65a1 9bbe 7220 6abd 7a0b 24bd
00000070: ae06 9e3e a18d 883d b874 16be 7c26 f13d
00000080: 16d2 f53d 8315 a13e 9d3f c43d 2f7c a63e
00000090: 3082 8b3e 7b40 c3be e435 193e d2bb 833e
000000a0: 486e 1a3e 8f39 f03d 8b00 ca3d e3e4 393e
000000b0: 8ef1 e63d 98ae f2bd c989 1b3e 3c61 ac3d
000000c0: 9dd8 8bbe 3d1c 2b3e d4b1 90ba cb8a 0b3e
000000d0: 8864 37be 9329 60be 26f3 303e f809 7f3b
000000e0: 254f 51be 28b6 7dbc 61ce d83e a72e 813d
000000f0: 9f91 aebd b2a2 f63d 2f7e b73d 0572 8a3d
00000100: 267c 7c3e b0e9 013e ce88 c93e ffb4 eb3c
00000110: 6cac fe3b c01c aa3e f99d 0dbd 7ae2 3cbe
00000120: 1b03 cb3d 1961 f03d cfe7 d0bc 24a0 363e
00000130: b768 423d 056d 893e a8ae ddbd 825f 9e3e
00000140: 5a19 ebbd 9f94 8e3e 2704 6fbd c638 c83d
00000150: 2130 f93d b847 813e c4d6 803e 9cbb 32bd
00000160: 5eeb 253c de54 f1bd 6664 20be 0889 3c3e
00000170: f45d 4c3e 5479 4b3e c946 86bd 8874 913e
00000180: 88bd 313e ab34 873e 6d1d 3f3e 2fdc 403e
00000190: b719 ea3e 22e1 07bd 72be fc3d 3218 393e
000001a0: be44 ec3d eb97 173e 699b 733d e605 9e3e
000001b0: 60cf 1ebd 4730 0cbe 2840 163e db30 26bd
000001c0: bafe 8fbd de31 823e 51fc f938 3948 f03d
000001d0: 3387 8b3e cbf6 50be 4ec3 543e c2b6 8e3d
000001e0: e28d 25be db13 42be 3b27 f33d 3335 16bd
000001f0: ed17 f0bd d0db 0a3e 94b0 d3bd e17c b13c
00000200: e4ab e9be 6ac5 933d 86a0 b8be ae11 3e3e
00000210: 7553 c63e 4243 783e 7963 073d e723 80be
00000220: 004d 243e 6ce4 9f3d 6e4c 97bd ca04 3a3e
00000230: 7f80 2e3e d105 873d 0f22 54be 2c42 55bb
00000240: 9e4a 963c 74ae 993d aa65 683c 4e22 3a3d
00000250: bc3a 093e d4e1 813e 3761 5ebe 0e08 713e
00000260: 0756 9d3c 8d69 91bd 81f5 293d 3361 a23e
00000270: a827 793e 12f2 813e cfb1 11be a20f ccbb
00000280: 3a68 bebc d951 b93e 4426 273e 84de 4b3e
00000290: a693 1e3f ab45 19be 5d1e 0a3e 145e fd3d
000002a0: f06a a33e ce69 253e cd4c 0f3e 2b8c ca3e
000002b0: 67c9 0f3e 6322 4cbe c34b fb3d 6ec8 663d
000002c0: a739 97be d45d f4bd 0c38 e03d 9287 4e3e
000002d0: a1ed f4be 4404 e1bc fb42 0a3e 98d1 a6bb
000002e0: bcd5 31be 04f5 26be 86ec 22bf a964 64bd
000002f0: 3352 72be c4f4 6b3e 5b58 47be 7006 d3bc
00000300: 963f 5e3e 91b3 a93e e7b1 303c 040b 14bd
00000310: 0760 6b3e 83a2 223f 792f c5be ed64 a03b
00000320: ba18 d73d a850 3c3e 3e7e bd3d c0f5 f33c
00000330: 77f6 153e 8dcb a83e 810a 8c3e bff7 cd3e
00000340: 7270 f03d 200e ed3d 4a4c 773e 2055 cb3d
00000350: 3ad8 113d 2708 633e fdd4 b9bd 4395 863c
00000360: ea9d 49bd ec0a bcbe 68c4 92be 209f af3e
00000370: a6d4 883e 7565 e7bc a552 a73d c3b8 883e
00000380: 30e9 f83d 314c de3e da3c 9f3c dfa0 833d
00000390: 9f4d 85bd ff92 10be d6e0 263e 66a7 a83d
000003a0: 3758 94be e200 283e 2b33 ec3d 77fa 93be
000003b0: 38e9 813d 9885 4bbe af16 fe3d 8fae 8bbc
000003c0: 534c 003e acac ef3c d607 5d3e 28f7 563e
000003d0: c0bf 24be d91a 843d 69e6 463d 3b1c 7f3e
000003e0: 5313 22be 8bc3 59be f0e2 c4be 2022 ebbd
000003f0: 3d66 78bd 51be a53d 0400 52be 6dda 72bc
-0.4046565 0.1376644 0.4325596 -0.084920086 0.14811617 0.45406702 0.34395114 -0.1499821
0.17773463 0.11347624 -0.4229665 0.3008364 0.093966775 0.32001624 -0.24492654 -0.08632929
-0.024974937 0.25707176 0.014587194 0.18827602 0.10206071 0.29970172 -0.031445894 -0.16152416
-0.21544898 -0.30396572 -0.05715985 -0.040050007 0.3086447 0.066676386 -0.14692962 0.117749184
0.12002961 0.31461725 0.09582446 0.3251662 0.27247763 -0.38135132 0.14961964 0.25729233
0.15081131 0.117297284 0.09863385 0.1815372 0.11276542 -0.11849707 0.1518928 0.084169835
-0.273137 0.16709991 -0.0011039325 0.13627164 -0.17909443 -0.2189086 0.17280254 0.0038915854
-0.20440347 -0.015485324 0.42344955 0.06307726 -0.08523869 0.120427504 0.089596145 0.06760029
0.24656734 0.12686801 0.39362186 0.02877283 0.007772019 0.3322506 -0.034574483 -0.18445769
0.09912702 0.1173727 -0.02550116 0.17834526 0.047463145 0.26840988 -0.10824329 0.30932242
-0.11479445 0.27847764 -0.05835357 0.09776454 0.12167383 0.2525003 0.25163853 -0.04363595
0.010126917 -0.11783765 -0.15663299 0.18411648 0.19957715 0.19870502 -0.0655647 0.2840922
0.17357457 0.2640737 0.18663569 0.18833993 0.45722744 -0.033173688 0.12341012 0.18075636
0.11536549 0.14804046 0.059474383 0.30863875 -0.038771987 -0.13690291 0.14672911 -0.040573936
-0.07031007 0.2542867 0.00011920243 0.117325254 0.27251586 -0.20406644 0.20777628 0.06968452
-0.16167405 -0.18952887 0.11872717 -0.03667183 -0.117233135 0.13560414 -0.10336414 0.021665992
-0.45638955 0.07215388 -0.3605997 0.18561432 0.38735548 0.24244407 0.03305385 -0.2502739
0.16044998 0.0780724 -0.07387625 0.1816589 0.17041205 0.06592906 -0.20716117 -0.0032540662
0.018346127 0.075039774 0.014184395 0.04544287 0.13401312 0.25367606 -0.21716772 0.23538229
0.01920606 -0.0710021 0.041493896 0.31714782 0.24331534 0.25379997 -0.14227985 -0.0062274495
-0.023243058 0.36195257 0.16323191 0.19909102 0.61944044 -0.14967982 0.13488145 0.123714596
0.31917524 0.16153643 0.13994141 0.39560065 0.14041673 -0.19934992 0.1227031 0.05634349
-0.29536173 -0.11931959 0.1094819 0.20168903 -0.47837546 -0.027467854 0.13502114 -0.0050909035
-0.1736669 -0.16304404 -0.63642156 -0.05576006 -0.23664169 0.2304259 -0.19467299 -0.025759906
0.21703944 0.3314481 0.010784603 -0.036143318 0.2298585 0.63529223 -0.3851278 0.004894844
0.10502763 0.18390143 0.092525944 0.029780269 0.146448 0.32967797 0.27351764 0.40228078
0.11740197 0.1157496 0.24150196 0.09928346 0.0356066 0.22171079 -0.090738274 0.016428595
-0.049222864 -0.36727083 -0.2866547 0.3430109 0.26724738 -0.02824662 0.0817006 0.26703462
0.12153852 0.43417504 0.019438196 0.06427168 -0.06508946 -0.14118575 0.16296706 0.08235054
-0.28973553 0.16406587 0.11533197 -0.28902027 0.06343311 -0.1987518 0.1240667 -0.01705101
0.12529115 0.029257141 0.2158502 0.2099272 -0.16088772 0.06450433 0.04855958 0.24913113
-0.15827684 -0.21266 -0.3845439 -0.11481118 -0.060644377 0.080929406 -0.20507818 -0.014822585

fc3.bias f4 [4]
00000000: 22b8 703e 0ccb 623e 4f8e 0e3e 6239 163e
0.23507741 0.22147769 0.13921474 0.14670327
